Model: "auto_encoder_8"
_________________________________________________________________
 Layer (type)                Output Shape              Param #   
=================================================================
 conv2d_48 (Conv2D)          (None, 64, 64, 32)        2624      
                                                                 
 max_pooling2d_24 (MaxPooli  (None, 32, 32, 32)        0         
 ng2D)                                                           
                                                                 
 conv2d_49 (Conv2D)          (None, 32, 32, 64)        18496     
                                                                 
 max_pooling2d_25 (MaxPooli  (None, 16, 16, 64)        0         
 ng2D)                                                           
                                                                 
 dropout_35 (Dropout)        multiple                  0 (unused)
                                                                 
 conv2d_50 (Conv2D)          (None, 16, 16, 128)       73856     
                                                                 
 max_pooling2d_26 (MaxPooli  (None, 8, 8, 128)         0         
 ng2D)                                                           
                                                                 
 flatten_8 (Flatten)         (None, 8192)              0         
                                                                 
 dropout_36 (Dropout)        multiple                  0 (unused)
                                                                 
 dense_24 (Dense)            (None, 512)               4194816   
                                                                 
 dropout_37 (Dropout)        multiple                  0 (unused)
                                                                 
 dense_25 (Dense)            (None, 128)               65664     
                                                                 
 dropout_38 (Dropout)        multiple                  0 (unused)
                                                                 
 dense_26 (Dense)            (None, 512)               66048     
                                                                 
 reshape_8 (Reshape)         (None, 4, 4, 32)          0         
                                                                 
 up_sampling2d_24 (UpSampli  (None, 8, 8, 32)          0         
 ng2D)                                                           
                                                                 
 conv2d_51 (Conv2D)          (None, 8, 8, 128)         36992     
                                                                 
 dropout_39 (Dropout)        multiple                  0 (unused)
                                                                 
 up_sampling2d_25 (UpSampli  (None, 16, 16, 128)       0         
 ng2D)                                                           
                                                                 
 conv2d_52 (Conv2D)          (None, 16, 16, 64)        73792     
                                                                 
 dropout_40 (Dropout)        multiple                  0 (unused)
                                                                 
 up_sampling2d_26 (UpSampli  (None, 32, 32, 64)        0         
 ng2D)                                                           
                                                                 
 conv2d_53 (Conv2D)          (None, 32, 32, 32)        18464     
                                                                 
 conv2d_transpose_8 (Conv2D  (None, 64, 64, 7)         2023      
 Transpose)                                                      
                                                                 
=================================================================
Total params: 4552775 (17.37 MB)
Trainable params: 4552775 (17.37 MB)
Non-trainable params: 0 (0.00 Byte)
_________________________________________________________________

charset_in: AaOoUu8Bj
charset_out: ÄäÖöÜüß
…
