Model: "auto_encoder_4"
_________________________________________________________________
 Layer (type)                Output Shape              Param #   
=================================================================
 conv2d_24 (Conv2D)          (None, 64, 64, 32)        2624      
                                                                 
 max_pooling2d_12 (MaxPooli  (None, 32, 32, 32)        0         
 ng2D)                                                           
                                                                 
 conv2d_25 (Conv2D)          (None, 32, 32, 64)        18496     
                                                                 
 max_pooling2d_13 (MaxPooli  (None, 16, 16, 64)        0         
 ng2D)                                                           
                                                                 
 dropout_12 (Dropout)        (None, 16, 16, 64)        0         
                                                                 
 conv2d_26 (Conv2D)          (None, 16, 16, 128)       73856     
                                                                 
 max_pooling2d_14 (MaxPooli  (None, 8, 8, 128)         0         
 ng2D)                                                           
                                                                 
 flatten_4 (Flatten)         (None, 8192)              0         
                                                                 
 dropout_13 (Dropout)        (None, 8192)              0         
                                                                 
 dense_12 (Dense)            (None, 512)               4194816   
                                                                 
 dropout_14 (Dropout)        (None, 512)               0         
                                                                 
 dense_13 (Dense)            (None, 128)               65664     
                                                                 
 dropout_15 (Dropout)        (None, 128)               0         
                                                                 
 dense_14 (Dense)            (None, 512)               66048     
                                                                 
 reshape_4 (Reshape)         (None, 4, 4, 32)          0         
                                                                 
 up_sampling2d_12 (UpSampli  (None, 8, 8, 32)          0         
 ng2D)                                                           
                                                                 
 conv2d_27 (Conv2D)          (None, 8, 8, 128)         36992     
                                                                 
 dropout_16 (Dropout)        (None, 8, 8, 128)         0         
                                                                 
 up_sampling2d_13 (UpSampli  (None, 16, 16, 128)       0         
 ng2D)                                                           
                                                                 
 conv2d_28 (Conv2D)          (None, 16, 16, 64)        73792     
                                                                 
 dropout_17 (Dropout)        (None, 16, 16, 64)        0         
                                                                 
 up_sampling2d_14 (UpSampli  (None, 32, 32, 64)        0         
 ng2D)                                                           
                                                                 
 conv2d_29 (Conv2D)          (None, 32, 32, 32)        18464     
                                                                 
 conv2d_transpose_4 (Conv2D  (None, 64, 64, 7)         2023      
 Transpose)                                                      
                                                                 
=================================================================
Total params: 4552775 (17.37 MB)
Trainable params: 4552775 (17.37 MB)
Non-trainable params: 0 (0.00 Byte)
_________________________________________________________________

charset_in: AaOoUu8Bj
charset_out: ÄäÖöÜüß
…
