Model: "auto_encoder_6"
_________________________________________________________________
 Layer (type)                Output Shape              Param #   
=================================================================
 conv2d_36 (Conv2D)          (None, 64, 64, 32)        2624      
                                                                 
 max_pooling2d_18 (MaxPooli  (None, 32, 32, 32)        0         
 ng2D)                                                           
                                                                 
 conv2d_37 (Conv2D)          (None, 32, 32, 64)        18496     
                                                                 
 max_pooling2d_19 (MaxPooli  (None, 16, 16, 64)        0         
 ng2D)                                                           
                                                                 
 dropout_23 (Dropout)        (None, 16, 16, 64)        0         
                                                                 
 conv2d_38 (Conv2D)          (None, 16, 16, 128)       73856     
                                                                 
 max_pooling2d_20 (MaxPooli  (None, 8, 8, 128)         0         
 ng2D)                                                           
                                                                 
 flatten_6 (Flatten)         (None, 8192)              0         
                                                                 
 dropout_24 (Dropout)        (None, 8192)              0         
                                                                 
 dense_18 (Dense)            (None, 512)               4194816   
                                                                 
 dropout_25 (Dropout)        (None, 512)               0         
                                                                 
 dense_19 (Dense)            (None, 128)               65664     
                                                                 
 dropout_26 (Dropout)        multiple                  0 (unused)
                                                                 
 dense_20 (Dense)            (None, 512)               66048     
                                                                 
 reshape_6 (Reshape)         (None, 4, 4, 32)          0         
                                                                 
 up_sampling2d_18 (UpSampli  (None, 8, 8, 32)          0         
 ng2D)                                                           
                                                                 
 conv2d_39 (Conv2D)          (None, 8, 8, 128)         36992     
                                                                 
 dropout_27 (Dropout)        (None, 8, 8, 128)         0         
                                                                 
 up_sampling2d_19 (UpSampli  (None, 16, 16, 128)       0         
 ng2D)                                                           
                                                                 
 conv2d_40 (Conv2D)          (None, 16, 16, 64)        73792     
                                                                 
 dropout_28 (Dropout)        (None, 16, 16, 64)        0         
                                                                 
 up_sampling2d_20 (UpSampli  (None, 32, 32, 64)        0         
 ng2D)                                                           
                                                                 
 conv2d_41 (Conv2D)          (None, 32, 32, 32)        18464     
                                                                 
 conv2d_transpose_6 (Conv2D  (None, 64, 64, 7)         2023      
 Transpose)                                                      
                                                                 
=================================================================
Total params: 4552775 (17.37 MB)
Trainable params: 4552775 (17.37 MB)
Non-trainable params: 0 (0.00 Byte)
_________________________________________________________________

charset_in: AaOoUu8Bj
charset_out: ÄäÖöÜüß
…
