Model: "variational_auto_encoder_3"
_________________________________________________________________
 Layer (type)                Output Shape              Param #   
=================================================================
 conv2d_15 (Conv2D)          (None, 64, 64, 32)        2624      
                                                                 
 max_pooling2d_9 (MaxPoolin  (None, 32, 32, 32)        0         
 g2D)                                                            
                                                                 
 conv2d_16 (Conv2D)          (None, 32, 32, 64)        18496     
                                                                 
 max_pooling2d_10 (MaxPooli  (None, 16, 16, 64)        0         
 ng2D)                                                           
                                                                 
 conv2d_17 (Conv2D)          (None, 16, 16, 128)       73856     
                                                                 
 max_pooling2d_11 (MaxPooli  (None, 8, 8, 128)         0         
 ng2D)                                                           
                                                                 
 flatten_3 (Flatten)         (None, 8192)              0         
                                                                 
 dense_14 (Dense)            (None, 512)               4194816   
                                                                 
 dense_15 (Dense)            (None, 8)                 4104      
                                                                 
 dense_16 (Dense)            (None, 8)                 72        
                                                                 
 dense_17 (Dense)            multiple                  0 (unused)
                                                                 
 sampling_2 (Sampling)       (None, 8)                 0         
                                                                 
 dense_18 (Dense)            (None, 512)               4608      
                                                                 
 reshape_2 (Reshape)         (None, 4, 4, 32)          0         
                                                                 
 up_sampling2d_6 (UpSamplin  (None, 8, 8, 32)          0         
 g2D)                                                            
                                                                 
 conv2d_18 (Conv2D)          (None, 8, 8, 128)         36992     
                                                                 
 up_sampling2d_7 (UpSamplin  (None, 16, 16, 128)       0         
 g2D)                                                            
                                                                 
 conv2d_19 (Conv2D)          (None, 16, 16, 64)        73792     
                                                                 
 up_sampling2d_8 (UpSamplin  (None, 32, 32, 64)        0         
 g2D)                                                            
                                                                 
 conv2d_20 (Conv2D)          (None, 32, 32, 32)        18464     
                                                                 
 conv2d_transpose_2 (Conv2D  (None, 64, 64, 7)         2023      
 Transpose)                                                      
                                                                 
=================================================================
Total params: 4429853 (16.90 MB)
Trainable params: 4429847 (16.90 MB)
Non-trainable params: 6 (24.00 Byte)
_________________________________________________________________

charset_in: AaOoUu8Bj
…
