Model: "auto_encoder_3"
_________________________________________________________________
 Layer (type)                Output Shape              Param #   
=================================================================
 conv2d_18 (Conv2D)          (None, 64, 64, 32)        2624      
                                                                 
 max_pooling2d_9 (MaxPoolin  (None, 32, 32, 32)        0         
 g2D)                                                            
                                                                 
 conv2d_19 (Conv2D)          (None, 32, 32, 64)        18496     
                                                                 
 max_pooling2d_10 (MaxPooli  (None, 16, 16, 64)        0         
 ng2D)                                                           
                                                                 
 dropout_6 (Dropout)         (None, 16, 16, 64)        0         
                                                                 
 conv2d_20 (Conv2D)          (None, 16, 16, 128)       73856     
                                                                 
 max_pooling2d_11 (MaxPooli  (None, 8, 8, 128)         0         
 ng2D)                                                           
                                                                 
 flatten_3 (Flatten)         (None, 8192)              0         
                                                                 
 dropout_7 (Dropout)         (None, 8192)              0         
                                                                 
 dense_9 (Dense)             (None, 512)               4194816   
                                                                 
 dropout_8 (Dropout)         multiple                  0 (unused)
                                                                 
 dense_10 (Dense)            (None, 128)               65664     
                                                                 
 dropout_9 (Dropout)         multiple                  0 (unused)
                                                                 
 dense_11 (Dense)            (None, 512)               66048     
                                                                 
 reshape_3 (Reshape)         (None, 4, 4, 32)          0         
                                                                 
 up_sampling2d_9 (UpSamplin  (None, 8, 8, 32)          0         
 g2D)                                                            
                                                                 
 conv2d_21 (Conv2D)          (None, 8, 8, 128)         36992     
                                                                 
 dropout_10 (Dropout)        (None, 8, 8, 128)         0         
                                                                 
 up_sampling2d_10 (UpSampli  (None, 16, 16, 128)       0         
 ng2D)                                                           
                                                                 
 conv2d_22 (Conv2D)          (None, 16, 16, 64)        73792     
                                                                 
 dropout_11 (Dropout)        (None, 16, 16, 64)        0         
                                                                 
 up_sampling2d_11 (UpSampli  (None, 32, 32, 64)        0         
 ng2D)                                                           
                                                                 
 conv2d_23 (Conv2D)          (None, 32, 32, 32)        18464     
                                                                 
 conv2d_transpose_3 (Conv2D  (None, 64, 64, 7)         2023      
 Transpose)                                                      
                                                                 
=================================================================
Total params: 4552775 (17.37 MB)
Trainable params: 4552775 (17.37 MB)
Non-trainable params: 0 (0.00 Byte)
_________________________________________________________________

charset_in: AaOoUu8Bj
charset_out: ÄäÖöÜüß
…
